activecore/kernelip/neuromorphix/implementation environment/exported_model.pth (torch, 35866 bytes, 2 tensors)

fc1.weight f4 [10, 784]
-0.011723603 -0.023549536 -0.015591034 -0.010203525 -0.0043699723 -0.0072972504 -0.009345303 0.0009054804
-0.012623376 -0.0009728163 -0.014285692 -0.010438047 -0.008099847 -0.015053564 -0.00851235 -0.0065604355
-0.0133885695 -0.003598737 -0.012049429 -0.012432225 -0.009091201 -0.0022428206 -0.009451399 -0.0052597397
-0.014896569 -0.010500303 -0.026046295 -0.012319141 -0.005875401 -0.014225603 -0.009901935 -0.020823345
-0.016240971 -0.016935628 -0.008916812 -0.0051452876 -0.015615066 -0.008837682 -0.008541885 -0.013501265
0.009426059 -0.018176714 -0.002048309 -0.011875295 0.0036436394 -0.00756846 -0.0045231744 -0.019731913
-0.013459759 -0.014513163 -0.01257825 -0.021571342 -0.015360301 -0.016562928 -0.004774194 0.00037638238
-0.0044876314 -0.015403546 0.00062143983 -0.012012517 -0.013334473 -0.013731576 -0.005254174 -0.006625116
-0.00059334276 -0.0025045194 0.03351168 0.033703826 0.049748097 0.048647415 0.04142103 0.05866395
0.037068665 0.016836576 0.01781113 0.0144652845 0.0039112503 -0.0046825907 -0.002912829 -0.0001825161
-0.014958282 -0.01701718 -0.0077181435 -0.014408492 -0.012009988 -0.0076451334 -0.020250894 -0.018484976
-0.0029507226 -0.007984539 -0.0073806397 0.005179576 0.016911345 0.015407539 0.05044077 0.0701367
0.080720246 0.09218621 0.09242173 0.07226374 0.07097567 0.061873883 0.04946348 0.035560276
0.005406008 0.0084143365 -0.007047392 -0.0023184028 -0.009149101 -0.017490609 0.00071121997 -0.0071562375
-0.00946135 -0.0044708964 -0.0091455495 -0.015053133 -0.018295782 -0.014920754 -0.006199451 0.004546129
0.02212148 0.04143988 0.0754223 0.09384834 0.11661539 0.1284113 0.1458678 0.15294737
0.112887055 0.10535959 0.0671026 0.043160893 0.010044984 0.011022351 -0.006134228 -0.02151882
-0.011268269 -0.017060114 -0.0073076016 -0.0116872145 -0.019877797 -0.01931667 -0.0038259018 -0.012948484
-0.012499658 0.0040915697 0.0077450015 0.021671146 0.03891485 0.080522105 0.10334588 0.14940254
0.20033991 0.19568542 0.24687062 0.2411247 0.22745788 0.18783095 0.13724977 0.09788976
0.05950846 0.026237652 -0.009615089 -0.026921688 -0.023250988 -0.013956232 0.0011349338 4.5809815e-05
-0.004238295 -0.010038355 -0.014463932 -0.0109786615 -0.01574392 0.001311042 0.00068436866 0.030956011
0.05081381 0.065557785 0.1047652 0.1010064 0.13413915 0.15991104 0.16749312 0.12993746
0.116231434 0.09334683 0.08255808 0.0785093 0.05912604 0.02067406 -0.00097274623 0.013203485
-0.004223313 -0.0016381235 -0.007913088 -0.010747704 -0.020174846 -0.01002822 -0.0242013 -0.018051064
7.1252856e-05 -0.015539697 -0.0033450653 -0.0028106056 0.015895117 0.0064743287 0.01877447 0.015671344
0.0010397309 0.020694993 0.030222593 0.013275267 -0.035744157 -0.056313865 -0.03917155 -0.01563929
0.012490868 0.015772216 0.020330274 0.0333864 0.039759938 0.028391993 0.0010373171 -0.019808816
-0.013662676 -0.012465106 -0.009039741 -0.023796022 -0.023183398 -0.021905769 -0.0037398695 -0.026845748
-0.020494888 -0.04045319 -0.04498318 -0.079016216 -0.09841939 -0.079313755 -0.035675768 -0.044470422
-0.060877156 -0.10939926 -0.10645609 -0.06363628 -0.038069718 0.004265248 0.04074522 0.041875705
0.058164593 0.028353026 -0.0024830517 -0.011846273 -0.0027742682 -0.012733165 -0.020818938 -0.01590051
00000000: 5b14 40bc f5ea c0bc 8971 7fbc b02c 27bc
00000010: fc31 8fbb c61d efbb 0b1d 19bc c35d 6d3a
00000020: 47d2 4ebc 9904 7fba 890e 6abc 5804 2bbc
00000030: 38b5 04bc 39a3 76bc 6277 0bbc ecf8 d6bb
00000040: bb5b 5bbc cad8 6bbb f86a 45bc 88b0 4bbc
00000050: 43f3 14bc 49fc 12bb 0ada 1abc e559 acbb
00000060: bd10 74bc 7609 2cbc 0a5f d5bc 39d6 49bc
00000070: 7086 c0bb 8112 69bc ba3b 22bc b895 aabc
00000080: c90b 85bc 96bc 8abc d217 12bc cd99 a8bb
00000090: 55d6 7fbc edcb 10bc 43f3 0bbc 6934 5dbc
000000a0: c26f 1a3c 55e7 94bc ec3c 06bb 9990 42bc
000000b0: 20ca 6e3b d800 f8bb 2337 94bb d2a4 a1bc
000000c0: 5286 5cbc 9ec8 6dbc 0115 4ebc 62b6 b0bc
000000d0: c6a9 7bbc faae 87bc d870 9cbb 3055 c539
000000e0: fb0c 93bb 285f 7cbc 1fe8 223a 26d0 44bc
000000f0: d578 5abc 67fa 60bc 352b acbb 8017 d9bb
00000100: 8f8a 1bba dd22 24bb 8b43 093d 060d 0a3d
00000110: a9c4 4b3d 8342 473d 19a9 293d 9c49 703d
00000120: 50d5 173d dcec 893c a6e8 913c cdff 6c3c
00000130: f229 803b 6b70 99bb 29e5 3ebb cb61 3fb9
00000140: 9513 75bc 9d67 8bbc 7be8 fcbb 9811 6cbc
00000150: 8ac5 44bc 0784 fabb 34e5 a5bc ce6d 97bc
00000160: e960 41bb 95d1 02bc 4bd9 f1bb 6fb9 a93b
00000170: a989 8a3c e76f 7c3c fb9a 4e3d d5a3 8f3d
00000180: a850 a53d 20cc bc3d 9b47 bd3d 03ff 933d
00000190: b15b 913d 786f 7d3d 389a 4a3d a7a7 113d
000001a0: e224 b13b 49dc 093c cfed e6bb 58f0 17bb
000001b0: 1ce6 15bc 7748 8fbc 2a71 3a3a df7e eabb
000001c0: c703 1bbc 9980 92bb 37d7 15bc 6aa1 76bc
000001d0: 09e1 95bc 2e76 74bc c424 cbbb b2f7 943b
000001e0: 1b38 b53c ddbc 293d 0277 9a3d 8f33 c03d
000001f0: 0dd4 ee3d 407e 033e 5e5e 153e 3c9e 1c3e
00000200: 5431 e73d c5c6 d73d 176d 893d 7ac9 303d
00000210: b793 243c 1797 343c a201 c9bb 3d48 b0bc
00000220: 8c9e 38bc a7c1 8bbc 9b74 efbb bb7b 3fbc
00000230: c3d6 a2bc fe3d 9ebc fbbb 7abb e125 54bc
00000240: 5ecb 4cbc 9312 863b c8c9 fd3b b087 b13c
00000250: 2e65 1f3d c6e8 a43d 01a7 d33d fbfc 183e
00000260: e825 4d3e c261 483e a7cb 7c3e 65e9 763e
00000270: b8ea 683e c256 403e 348b 0c3e 6d7a c83d
00000280: 25bf 733d 58f0 d63c 9b88 1dbc df8a dcbc
00000290: db78 bebc aea8 64bc 0fc2 943a ea23 4038
000002a0: 65e1 8abb ea77 24bc 21fa 6cbc d8df 33bc
000002b0: 65f9 80bc 45d7 ab3a 3467 333a 7697 fd3c
000002c0: 2422 503d 2943 863d 238f d63d 72dc ce3d
000002d0: c65b 093e b8bf 233e 5183 2b3e 530e 053e
000002e0: bf0a ee3d 9f2c bf3d 3614 a93d 7cc9 a03d
000002f0: 262e 723d a55c a93c e5ff 7eba 6e53 583c
00000300: b863 8abb 4eb6 d6ba e6a5 01bc 2317 30bc
00000310: b845 a5bc 674d 24bc ce41 c6bc d3df 93bc
00000320: 966d 9538 379a 7ebc e238 5bbb 2332 38bb
00000330: 7a36 823c 9b26 d43b ebcc 993c 3161 803c
00000340: 9447 883a 8c88 a93c 5f95 f73c 8180 593c
00000350: 7768 12bd 5ea9 66bd 5972 20bd f81d 80bc
00000360: 7fa6 4c3c bc34 813c ad8b a63c 2ec0 083d
00000370: 51db 223d 5396 e83c 96f6 873a 1946 a2bc
00000380: 6bd9 5fbc 723a 4cbc 6c1b 14bc e0ef c2bc
00000390: 1ceb bdbc ba73 b3bc 9918 75bb 9deb dbbc
000003a0: e5e4 a7bc 3fb2 25bd 4840 38bd 41d3 a1bd
000003b0: 1b90 c9bd 406f a2bd c120 12bd 9e26 36bd
000003c0: 535a 79bd b80c e0bd a705 dabd bd53 82bd
000003d0: feee 1bbd 7ec3 8b3b 76e4 263d dc85 2b3d
000003e0: ff3d 6e3d 9b44 e83c b2ba 22bb df16 42bc
000003f0: 7fd0 35bb c49e 50bc 7a8c aabc c941 82bc

fc2.weight f4 [10, 10]
0.47162193 0.48133788 -0.22951251 -1.2088491 0.19678862 0.07515806 0.49118778 -0.88784105
0.7042185 -0.16415012 0.4722588 -0.8129415 -0.16090947 0.65917933 -0.1267868 -0.2339445
0.48805037 0.60213685 -0.57837194 -0.7088654 0.28293598 0.48159295 0.18465793 0.4823656
0.114535555 0.15826859 0.44235346 -0.79047227 0.29533333 -0.8820159 0.602565 0.27297857
-0.09622414 -0.901597 0.17758976 -0.16442049 0.12044792 0.60825247 -0.75532776 0.2835535
-1.1732734 0.6301583 0.2045301 0.6563522 -0.27158898 -0.11637266 -0.4785016 -0.343108
-0.2761356 0.6707352 0.4409522 0.4045134 -0.03701821 -0.9866176 -0.10318945 -0.12028013
0.25379407 0.558469 -0.7711858 0.2002665 0.6102831 0.3326239 -0.3098058 0.5097353
-0.26247868 -0.18225111 -1.0617067 -0.6549137 0.2076131 0.40042523 -1.03426 0.23058136
-0.16660161 0.37077788 0.019771954 -0.17424475 0.5277358 0.5135285 -0.7099334 0.26678157
0.5603797 0.31559798 0.26475394 -0.74293345 -0.00054056407 0.22512873 0.5376196 -0.94856364
-0.739446 0.55357355 -1.1026983 0.31295818 0.16319393 0.61116695 -0.04241197 -0.03550308
0.41288152 0.07842726 -0.20368168 0.5474334
00000000: 6e78 f13e eb71 f63e 5405 6bbe 91bb 9abf
00000010: f582 493e 78ec 993d f77c fb3e 8d49 63bf
00000020: aa47 343f f816 28be e8cb f13e ef1c 50bf
00000030: 74c5 24be fabf 283f 66d4 01be 268f 6fbe
00000040: bde1 f93e a425 1a3f 2f10 14bf 3478 35bf
00000050: fcdc 903e 5a93 f63e f816 3d3e a0f8 f63e
00000060: 9e91 ea3d 2911 223e 277c e23e 645c 4abf
00000070: ee35 973e cbcb 61bf b341 1a3f d9c3 8b3e
00000080: 2911 c5bd 10cf 66bf 17da 353e d85d 28be
00000090: 66ad f63d 6fb6 1b3f 295d 41bf ed2d 913e
000000a0: d32d 96bf 0e52 213f 5770 513e b306 283f
000000b0: b60d 8bbe ca54 eebd 29fe f4be daab afbe
000000c0: a561 8dbe 4db5 2b3f 7dc4 e13e 611c cf3e
000000d0: 68a0 17bd f992 7cbf fe54 d3bd 6e55 f6bd
000000e0: 4cf1 813e d3f7 0e3f 6f6c 45bf a912 4d3e
000000f0: 833b 1c3f ae4d aa3e de9e 9ebe 037e 023f
00000100: 9b63 86be 09a0 3abe 01e6 87bf 6da8 27bf
00000110: 8798 543e 8904 cd3e a262 84bf 851d 6c3e
00000120: 9d99 2abe 99d6 bd3e cbf8 a13c 376d 32be
00000130: b219 073f 9b76 033f 32be 35bf 9897 883e
00000140: 0b75 0f3f 0f96 a13e d48d 873e e330 3ebf
00000150: a4b4 0dba 2588 663e 70a1 093f 11d5 72bf
00000160: 554c 3dbf ffb6 0d3f 3825 8dbf 0e3c a03e
00000170: 4f1c 273e 7075 1c3f 2db8 2dbd ad6b 11bd
00000180: 3565 d33e 799e a03d ee91 50be 9824 0c3f
